Elysian/elysian-backend/model.tflite (tflite, 18072 bytes, 7 tensors)

arith.constant f4 [1, 16]
1.1125263 -0.10507991 -0.17209661 -0.09833513 0.80967426 0.18210977 -0.27353767 -0.2507837
-0.10033238 -0.19334705 -0.1779004 0.32375407 -0.2573666 -0.17367603 -0.28424126 -0.18753268
00000000: 4367 8e3f 2334 d7bd 183a 30be ee63 c9bd
00000010: d046 4f3f fc7a 3a3e 210d 8cbe b966 80be
00000020: 107b cdbd c5fc 45be 862b 36be 18c3 a53e
00000030: 8ec5 83be 21d8 31be 1288 91be 9108 40be

arith.constant1 f4 [16, 32]
-0.4062073 -1.3310801 -0.7795204 -0.47531343 -0.06869767 -0.07892716 -0.019428521 -0.41848567
0.048152633 -0.43285474 -0.29817975 -0.0012466504 -0.8588596 -1.0420282 -0.48779988 -0.4340736
-0.4695424 -0.34897274 -1.0078356 -0.5302054 -0.01725619 0.011181024 -0.15811461 -0.7816738
-0.96858984 -0.09632161 0.27107576 0.2632591 -0.064013645 0.14397773 -0.81792206 -0.47133952
0.11052441 0.30470836 -0.40899697 -0.401694 -0.288514 0.7782262 -0.07109663 -0.1372995
0.06284148 0.087654136 0.6176682 0.40046135 0.60175186 0.05279065 0.18061747 -0.10203994
0.08217101 0.34762746 0.071981266 0.52315134 -0.32254303 0.013164235 0.8544004 0.6217405
-0.52885336 0.39957374 -0.10115049 -0.2298102 -0.15127622 0.086386584 0.24828655 0.11529566
0.18640068 -0.65433615 0.20701598 -0.3605158 -0.8036866 0.6601015 -0.24162997 0.11536902
-0.13384826 0.38139817 0.7386532 0.072154425 0.50869393 0.315775 0.40677783 -0.07902334
0.2362333 -0.10871804 -0.06375693 0.38332137 -0.1117164 0.2742926 0.43216613 0.41012934
0.03616396 0.10306108 -0.008327175 0.2943945 -0.25692725 -0.14608553 0.031297617 -0.26156825
0.24404222 0.28086844 0.24127443 -0.5078168 -0.6315934 0.8566575 -0.12896115 0.13809107
0.061642893 0.09864135 0.84275854 0.38957575 0.48195088 0.24650782 0.34776187 0.043815866
0.10019685 0.2149331 0.059919953 0.33167717 -0.07417568 0.30268648 0.5415315 0.60478115
0.16931559 0.46709672 0.31876767 0.18742962 -0.35469723 0.07625028 0.13755442 0.17350371
-0.49687624 -0.69841874 -0.38147718 -0.15503462 -0.036301337 -0.16884421 0.078277946 -0.13867545
0.41736576 -0.34934226 -0.3480396 -0.07255932 0.16003896 -0.34840262 -0.07326688 -0.25751272
-0.48387176 -0.38420394 -0.18607968 -0.32821113 -0.016007962 -0.23291744 0.18136185 -0.4054264
-0.3358768 0.07879655 -0.031819437 -0.32073972 -0.21864922 0.15450753 -0.38248298 -0.2697509
-0.43731463 -0.16729748 -0.09610702 0.48905098 0.45811182 0.11481104 0.80402285 0.080746934
-0.16518098 -0.12418753 0.13888247 -0.13923661 -0.09438301 -0.15043657 -0.15236233 0.01898194
-0.47778416 -0.014633175 -0.17966059 -0.29010007 -0.18766993 0.03531707 -0.0008253222 -0.16625042
-0.24038826 -0.0039035096 -0.07040899 0.28403366 0.03965302 -0.0981651 -0.2663871 -0.090192854
-0.06382347 0.073680475 -0.19076024 -0.33036417 -0.24885973 0.48851952 0.06503413 0.34799868
0.2147016 -0.0772445 0.7145934 0.1001137 0.2217767 0.28739044 0.09562551 0.15355922
0.22576702 -0.06975705 -0.43754974 0.32888657 -0.22118707 -0.08454336 0.5510061 -0.28567848
0.10493575 0.48100933 0.07001014 -0.10318779 -0.090884455 -0.020473724 0.40265718 -0.18274167
-0.12694208 -0.10015889 0.1568865 -0.1991734 -0.081365794 0.43041503 -0.058483444 0.07150848
-0.064935856 -0.36030498 0.73238087 0.4721815 0.432588 0.28353804 0.057595413 0.23602496
0.12965624 -0.101079494 -0.049973935 -0.64722043 0.14836282 0.025539909 0.526943 0.15461476
0.034789544 0.57976454 -0.2841741 0.103184044 -0.18748207 -0.05002674 -0.17899983 0.46891695
00000000: 67fa cfbe d560 aabf a68e 47bf 485c f3be
00000010: 5db1 8cbd 90a4 a1bd 9028 9fbc c143 d6be
00000020: b23b 453d 239f ddbe 04ab 98be a566 a3ba
00000030: 39de 5bbf 2e61 85bf e8c0 f9be e53e debe
00000040: dd67 f0be 8eac b2be c200 81bf 8bbb 07bf
00000050: da5c 8dbc 9d30 373c cce8 21be c61b 48bf
00000060: 81f5 77bf 4444 c5bd 71ca 8a3e e6c9 863e
00000070: 9619 83bd e66e 133e 5763 51bf 6a53 f1be
00000080: 9f5a e23d bc02 9c3e 0d68 d1be d6aa cdbe
00000090: 1bb8 93be d539 473f 1c9b 91bd 3d98 0cbe
000000a0: 09b3 803d 0384 b33d 811f 1e3f 4509 cd3e
000000b0: 690c 1a3f 023b 583d c9f3 383e 51fa d0bd
000000c0: 4649 a83d 3afc b13e ea6a 933d 3fed 053f
000000d0: 5c24 a5be ceae 573c fcb9 5a3f 632a 1f3f
000000e0: ef62 07bf ee94 cc3e fd27 cfbd 5d53 6bbe
000000f0: 27e8 1abe 73eb b03d d43e 7e3e 2220 ec3d
00000100: d2df 3e3e 9382 27bf fffb 533e 8795 b8be
00000110: 68be 4dbf 69fc 283f d96d 77be 9846 ec3d
00000120: 850f 09be 9f46 c33e 6018 3d3f b3c5 933d
00000130: c439 023f 43ad a13e 2f45 d03e fdd6 a1bd
00000140: 24e7 713e 90a7 debd fe92 82bd b342 c43e
00000150: 91cb e4bd 1470 8c3e e144 dd3e 79fc d13e
00000160: a920 143d b011 d33d b46e 08bc e0ba 963e
00000170: f88b 83be 7297 15be ee31 003d 46ec 85be
00000180: 34e6 793e fdcd 8f3e a510 773e 4800 02bf
00000190: 1bb0 21bf e84d 5b3f 640e 04be bf67 0d3e
000001a0: 427d 7c3d 7a04 ca3d 06bf 573f 7976 c73e
000001b0: 44c2 f63e 8c6c 7c3e d80d b23e 4478 333d
000001c0: 0234 cd3d 6c17 5c3e a06e 753d 97d1 a93e
000001d0: 6be9 97bd b9f9 9a3e cfa1 0a3f f0d2 1a3f
000001e0: 1161 2d3e 4d27 ef3e 8435 a33e 8ded 3f3e
000001f0: e09a b5be 1b29 9c3d 11db 0c3e f5aa 313e
00000200: 9066 febe 92cb 32bf fa50 c3be 65c1 1ebe
00000210: b6b0 14bd 7fe5 2cbe 3050 a03d f000 0ebe
00000220: f7b0 d53e fddc b2be 3f32 b2be fb99 94bd
00000230: 41e1 233e d461 b2be f20c 96bd b5d8 83be
00000240: 0abe f7be 61b6 c4be ac8b 3ebe 4a0b a8be
00000250: 2123 83bc e981 6ebe ecb6 393e 0d94 cfbe
00000260: 0bf8 abbe 1660 a13d 1955 02bd ff37 a4be
00000270: 95e5 5fbe 3937 1e3e cfd4 c3be ca1c 8abe
00000280: b4e7 dfbe 0850 2bbe c2d3 c4bd e464 fa3e
00000290: a28d ea3e 0d22 eb3d 71d4 4d3f a65e a53d
000002a0: 3425 29be 0856 febd 3537 0e3e 0b94 0ebe
000002b0: e14b c1bd 0b0c 1abe df04 1cbe 0380 9b3c
000002c0: 20a0 f4be fcbf 6fbc f2f8 37be ff87 94be
000002d0: 8c2c 40be a2a8 103d 6f5a 58ba 8d3d 2abe
000002e0: 5728 76be 06d2 7fbb 9732 90bd dc6c 913e
000002f0: 356b 223d c90a c9bd e463 88be 08b7 b8bd
00000300: e1b5 82bd cae5 963d a756 43be 7e25 a9be
00000310: 16d5 7ebe 3b1f fa3e 9d30 853d e22c b23e
00000320: bcda 5b3e 5d32 9ebd 98ef 363f 6908 cd3d
00000330: 6e19 633e d724 933e 4fd7 c33d a13e 1d3e
00000340: 782f 673e c9dc 8ebd 8506 e0be d263 a83e
00000350: dd7e 62be 1225 adbd bc0e 0d3f 7344 92be
00000360: 8ee8 d63d db46 f63e 7a61 8f3d 1f54 d3bd
00000370: a121 babd 83b8 a7bc 1529 ce3e a220 3bbe
00000380: 1bfd 01be 1b20 cdbd dba6 203e 1df4 4bbe
00000390: 1ca3 a6bd 5c5f dc3e 568c 6fbd 0a73 923d
000003a0: 17fd 84bd e579 b8be 507d 3b3f c6c1 f13e
000003b0: 2d7c dd3e e62b 913e 2be9 6b3d 87b0 713e
000003c0: 9bc4 043e c402 cfbd 78b1 4cbd 3db0 25bf
000003d0: 6cec 173e 1239 d13c bde5 063f 5553 1e3e
000003e0: 7b7f 0e3d 736b 143f 457f 91be 2852 d33d
000003f0: 4dfb 3fbe d7e8 4cbd bb4b 37be e215 f03e

arith.constant2 f4 [32, 64]
0.058334302 -0.51548445 0.0917359 0.11884192 0.84939647 0.033190615 0.14797173 0.0863238
-0.07103613 0.10586712 -0.18687466 0.3332358 -0.14943701 -0.5060447 0.26921543 0.62362486
0.0039801486 -0.047262747 -0.04378838 -0.10770617 -0.14428782 0.2336981 -0.2123776 0.18499176
1.214065 -0.21433856 -0.530243 -0.0853397 0.2794033 0.06838733 -0.18846186 0.13695002
-0.16529065 -0.028196454 0.05649166 0.29802954 -0.02229823 -0.25748754 0.045170233 0.37512147
-0.058977988 -0.23908928 -0.6392776 0.8225145 0.13285162 -0.10792941 -0.07389538 -0.555808
-0.031329602 -0.3347647 -0.014650085 -0.20314926 -0.61135644 0.013453082 0.17829694 -0.5606707
-0.0006148643 0.0709884 0.28625426 0.36246887 0.14429007 0.8113169 -0.27883038 0.14187533
0.21479104 0.22665146 0.08741192 -0.027779453 1.1325839 -0.43046302 0.20202214 0.027168632
0.14401817 0.09586388 -0.35720637 0.16923055 -0.04079044 -0.5770715 0.32866535 0.53912807
-0.037075795 -0.11625131 0.20201904 -0.072035566 -0.34562182 -0.006331793 0.024666915 0.12099755
1.7347113 -0.20471868 -0.5392491 -0.7945253 0.41646928 -0.21633512 -0.31192115 -0.23324794
-0.19867964 -0.0248456 0.13591072 0.23794778 -0.17119414 -0.69783723 0.089800924 1.2649398
0.235853 -0.21628025 -0.6239227 0.430829 0.40957174 0.123128295 0.3413745 -0.7827211
-0.13684379 0.87105453 -0.4172661 -0.14945537 -0.17182538 -0.07318988 -0.04162811 -0.48899552
-0.3811769 0.190135 0.15973 0.58085346 0.00024941616 0.544961 -0.22001335 0.062625706
0.14269622 0.6674548 0.4952279 -0.46162578 0.7994707 -0.012318316 -0.012965248 0.19840725
0.03405281 -0.027281083 -0.6051431 0.16151296 -0.07862234 -0.51169693 0.37233964 0.27236128
0.005641056 0.36670357 -0.39010933 0.26618907 0.3922351 0.4461644 -0.028050348 -0.08871972
0.4492054 -0.059368297 0.073119976 0.31602758 0.066088855 -0.040809214 -0.14389685 0.029223917
0.10084997 0.021027327 0.1321896 0.50568384 -0.8299171 0.08986413 -0.18663792 0.44803667
0.13958964 -0.21618329 -0.40325502 0.46527725 0.0031849467 0.015735388 0.08901268 -1.039695
0.05141622 0.15185764 -0.106030405 0.09288299 -0.7669387 0.31369436 -0.32119414 0.10682349
0.32860398 -0.48435467 0.02068849 -0.08839041 0.12934922 0.4015686 0.3733057 0.0036729574
-1.128404 -0.584619 -0.42490405 0.16353002 0.78222376 -0.12766294 -0.4786701 -0.110271335
-0.29014066 -0.15728235 -0.18457727 -0.2686544 -0.21422201 0.08417496 0.37802604 -1.0076815
-0.15739007 -0.34902883 -0.024377236 1.0062301 0.030186342 0.033089884 0.08770086 -0.51535887
-0.4923664 -0.21616194 0.5042846 0.25598517 0.04247433 -0.14434373 0.042647347 -0.11951685
0.22748709 0.07254505 -0.45444766 -0.8900878 -0.28691208 0.15533073 0.15672559 -0.31457338
-0.032412086 -0.0043910397 0.025229698 -0.110546045 -0.032846507 -0.20040572 -0.06737192 -0.024200318
-0.75572646 -0.91505086 -0.07105191 -0.16831806 -0.16244054 -0.33111134 -0.26697806 -0.2169763
-0.32949236 0.1366617 -0.110358804 -0.40741488 -0.24663873 -0.3379389 -0.42302883 0.017459512
00000000: f3ef 6e3d caf6 03bf 08e0 bb3d 6463 f33d
00000010: 0c72 593f e2f2 073d e785 173e 88ca b03d
00000020: 647b 91bd dcd0 d83d 125c 3fbe e29d aa3e
00000030: 0406 19be 258c 01bf 9bd6 893e e1a5 1f3f
00000040: e86b 823b 9596 41bd 725b 33bd 0d95 dcbd
00000050: 30c0 13be 8e4e 6f3e 8379 59be 7b6e 3d3e
00000060: 7b66 9b3f 917b 5bbe 01be 07bf 95c6 aebd
00000070: f30d 8f3e a80e 8c3d 25fc 40be a03c 0c3e
00000080: f441 29be 40fc e6bc cd63 673d 5497 983e
00000090: c7aa b6bc 68d5 83be 6c04 393d ec0f c03e
000000a0: e792 71bd d2d3 74be b2a7 23bf 4f90 523f
000000b0: 410a 083e 180a ddbd 7656 97bd 6f49 0ebf
000000c0: 7853 00bd 4766 abbe e906 70bc 5c06 50be
000000d0: db81 1cbf 516a 5c3c 7993 363e 1d88 0fbf
000000e0: d82e 21ba 5e62 913d eb8f 923e 8595 b93e
000000f0: c7c0 133e 77b2 4f3f dbc2 8ebe c447 113e
00000100: 2ff2 5b3e 5217 683e 0505 b33d bc91 e3bc
00000110: 82f8 903f a665 dcbe e4de 4e3e c090 de3c
00000120: 8079 133e 4854 c43d c1e3 b6be c64a 2d3e
00000130: e013 27bd f5ba 13bf d346 a83e 4c04 0a3f
00000140: cadc 17bd 2b15 eebd 14de 4e3e 6287 93bd
00000150: 58f5 b0be ee7a cfbb 4512 ca3c 90cd f73d
00000160: 050b de3f c6a1 51be 3b0c 0abf 0366 4bbf
00000170: 763b d53e f486 5dbe 21b4 9fbe 8cd8 6ebe
00000180: ad72 4bbe 0089 cbbc 2e2c 0b3e 95a8 733e
00000190: 844d 2fbe 76a5 32bf 8ce9 b73d 8ce9 a13f
000001a0: 7383 713e 9278 5dbe 66b9 1fbf 9e95 dc3e
000001b0: 63b3 d13e b02a fc3d a3c8 ae3e 6960 48bf
000001c0: c720 0cbe 6efd 5e3f e7a3 d5be d40a 19be
000001d0: fef2 2fbe 93e4 95bd 3d82 2abd 9f5d fabe
000001e0: 9e29 c3be c0b2 423e 4390 233e d0b2 143f
000001f0: 12c4 8239 9082 0b3f 2e4b 61be e841 803d
00000200: f51e 123e 51de 2a3f 838e fd3e 375a ecbe
00000210: 1daa 4c3f c3d2 49bc 316c 54bc 452b 4b3e
00000220: f67a 0b3d 947c dfbc a8ea 1abf a763 253e
00000230: c004 a1bd 92fe 02bf 4da3 be3e f072 8b3e
00000240: 9cd8 b83b 92c0 bb3e 69bc c7be ef49 883e
00000250: 0ad3 c83e a96f e43e d8c9 e5bc afb2 b5bd
00000260: 40fe e53e 2c2c 73bd edbf 953d 5ece a13e
00000270: 9859 873d 9027 27bd b259 13be ff66 ef3c
00000280: 6e8a ce3d 8041 ac3c b65c 073e 7f74 013f
00000290: 7275 54bf af0a b83d 031e 3fbe 1065 e53e
000002a0: 96f0 0e3e 275f 5dbe 7177 cebe d238 ee3e
000002b0: 8aba 503b 80e7 803c 484c b63d ba14 85bf
000002c0: d099 523d 9280 1b3e 7826 d9bd 7039 be3d
000002d0: 1856 44bf 8c9c a03e 8f73 a4be 46c6 da3d
000002e0: c83e a83e 56fd f7be e87a a93c 0806 b5bd
000002f0: 1f74 043e 669a cd3e ed21 bf3e 00b6 703b
00000300: 8b6f 90bf 97a9 15bf 068d d9be 6a74 273e
00000310: d13f 483f 13ba 02be 3f14 f5be f0d5 e1bd
00000320: 518d 94be a00e 21be d301 3dbe 128d 89be
00000330: 045d 5bbe ec63 ac3d a18c c13e b5fb 80bf
00000340: dd2a 21be e8b3 b2be c5b2 c7bc 26cc 803f
00000350: 5949 f73c 4289 073d 829c b33d 8fee 03bf
00000360: 7317 fcbe 8e59 5dbe cc18 013f 7d10 833e
00000370: 90f9 2d3d d8ce 13be fcae 2e3d 40c5 f4bd
00000380: 60f2 683e 8092 943d 5dad e8be cbdc 63bf
00000390: 24e6 92be 050f 1f3e ac7c 203e c30f a1be
000003a0: 89c2 04bd b6e2 8fbb 83ae ce3c f765 e2bd
000003b0: 0f8a 06bd 2837 4dbe 4afa 89bd bf3f c6bc
000003c0: 4a77 41bf c640 6abf aa83 91bd 925b 2cbe
000003d0: d056 26be 6d87 a9be 59b1 88be 092f 5ebe
000003e0: 39b3 a8be 0bf1 0b3e cc03 e2bd af98 d0be
000003f0: dd8e 7cbe 5406 adbe 3c97 d8be 4007 8f3c

arith.constant4 f4 [16]
0.36906734 -0.032142702 -0.023867343 -0.012742066 0.45039645 -0.53694 -0.28547642 -0.07273928
-0.029421382 -0.0315654 -0.022788415 0.1833357 -0.0781849 -0.01706898 -0.0046560457 -0.017872663
00000000: 65f6 bc3e 11a8 03bd 7285 c3bc 19c4 50bc
00000010: 5d9a e63e e674 09bf f729 92be 55f8 94bd
00000020: 1c05 f1bc b94a 01bd c5ae babc 5bbc 3b3e
00000030: 681f a0bd 3fd4 8bbc be91 98bb b169 92bc

arith.constant5 f4 [32]
-0.19260952 0.09312679 0.07873232 -0.2859054 -0.0660451 -0.2701088 -0.26024747 -0.2248089
-0.09710517 0.28005132 -0.28953442 -0.06970859 -0.3946082 0.018764207 -0.18604062 -0.11041502
-0.25139597 -0.03674377 0.1383818 0.09294037 -0.14184827 -0.3249073 -0.31690246 -0.052372005
0.060204983 -0.20880952 -0.08754315 -0.18115737 -0.13862062 -0.2613564 0.081536464 0.1514581
00000000: 6e3b 45be 42b9 be3d 693e a13d 3162 92be
00000010: a742 87bd b34b 8abe 283f 85be 4e34 66be
00000020: 13df c6bd e362 8f3e db3d 94be 61c3 8ebd
00000030: 160a cabe 65b7 993c 6f81 3ebe 4521 e2bd
00000040: f9b6 80be a380 16bd f5b3 0d3e 8557 be3d
00000050: ac40 11be 405a a6be 0a41 a2be 0784 56bd
00000060: 8099 763d 2ad2 55be d349 b3bd 5181 39be
00000070: 90f2 0dbe 82d0 85be 97fc a63d d517 1b3e

functional_1_1/dense_3_1/BiasAdd/ReadVariableOp f4 [64]
0.4662455 0.08109197 -0.0004565331 -0.2803539 0.1034168 -0.39787135 -0.047409 -0.038054034
-0.15471 -0.040956214 -0.5804243 0.19680484 0.0 0.16930379 0.015035448 0.46894324
-0.11044667 -0.18120041 -0.055216752 -0.0619901 -0.16875893 0.25064886 -0.6522699 0.20104447
-0.26220745 -0.16507915 -0.16827099 0.29634106 -0.16452877 0.0 0.0062505077 -0.018624175
0.004361204 0.0 0.2095758 0.01843393 -0.39929083 -0.36915934 -0.21138822 -0.24823388
0.4866368 -0.55730456 0.009981327 -0.092972696 -0.13279156 0.0 0.37695163 0.22226676
-0.2967151 0.35208192 0.08103707 -0.026755838 -0.30967414 -0.030453047 -0.36162838 0.0027346695
0.18147105 -0.27675664 -0.22354701 0.23657066 -0.100580506 0.22035556 -0.05616775 0.0
00000000: bbb7 ee3e 8c13 a63d d65a efb9 8c8a 8fbe
00000010: 30cc d33d cbb5 cbbe f12f 42bd 8cde 1bbd
00000020: 4c6c 1ebe b4c1 27bd b096 14bf 3587 493e
00000030: 0000 0000 f95d 2d3e 3d57 763c 5419 f03e
00000040: dd31 e2bd 9a8c 39be f62a 62bd 55e9 7dbd
00000050: 24cf 2cbe 0c55 803e 29fb 26bf 9ade 4d3e
00000060: 0e40 86be 820a 29be 3b4f 2cbe 04ba 973e
00000070: 3b7a 28be 0000 0000 0fd1 cc3b ba91 98bc
00000080: 6ee8 8e3b 0000 0000 0a9b 563e c102 973c
00000090: d96f ccbe 7402 bdbe 2776 58be 0631 7ebe
000000a0: 7528 f93e 83ab 0ebf b888 233c 7868 bebd
000000b0: 83fa 07be 0000 0000 ceff c03e e699 633e
000000c0: 0beb 97be 1544 b43e c3f6 a53d 0f2f dbbc
000000d0: 9c8d 9ebe ab78 f9bc 5b27 b9be 2438 333b
000000e0: 8cd3 393e 0cb3 8dbe 82e9 64be 943f 723e
000000f0: 27fd cdbd e3a4 613e 2810 66bd 0000 0000

functional_1_1/dense_3_1/MatMul f4 [64, 19]
-0.019377438 -0.007693289 0.13322382 -1.0774978 1.437432 -0.15734504 0.009049612 -1.4744989
1.4660358 -1.5984097 0.060070857 0.076675475 1.0654304 -1.7780608 -0.5803651 0.6849286
0.07772748 -1.6223751 -0.77167565 -0.17155355 0.0849451 -0.9336005 0.034884874 1.1181204
0.8278901 0.10102887 -0.5110574 0.4921739 -0.8519717 -0.23801833 0.055462383 0.37642902
-0.5785593 -0.9849599 0.124651425 -1.0740373 -0.6199597 0.050042003 -0.038823985 -0.27204052
-0.04836025 -0.014347467 1.2699295 -1.0445479 -0.43080458 0.18866973 1.4976476 -0.8511361
0.0017776496 -0.097776316 0.11861986 -1.1448957 0.55425406 -0.24630132 -0.64671665 -1.0630666
0.22795832 0.04374041 0.021461094 0.022836274 0.3794572 -1.8702928 0.24261038 0.64743465
0.5627334 -1.6034495 0.50497186 -0.0036635438 -0.16537863 -0.075441115 2.1558518 0.9142977
-0.2872296 0.79113156 2.129881 1.1243751 -0.0073148976 -0.003493833 -0.0153971575 2.5147998
0.10328969 -0.14508404 -0.060246985 -0.10727396 0.039669394 0.028870663 -0.0061168503 0.01005905
-2.613999 -0.14138712 -0.03245875 0.11853941 0.02965291 -0.063636094 -0.02676364 0.12478188
-0.19237135 -0.24624221 0.90507185 0.46528327 0.38741252 -0.89887744 0.77250105 0.4799283
-0.43654072 -0.031013263 0.06445167 0.22053944 -0.09951797 0.16084014 -0.5528587 0.5469836
-0.043386012 0.53421855 0.0037489813 -0.0031629624 0.19709249 -1.2000761 -0.6381141 -1.4681399
0.15114994 0.56543344 -0.6026384 0.21434198 -0.191097 0.016561756 0.9559579 0.33146527
0.8443898 -0.28623962 -0.92087454 -0.024642693 -0.16227634 -0.15993148 -0.08503941 -0.2650591
-0.1919698 0.044516087 0.19824304 0.16047484 0.10290736 0.08011657 -0.21117125 -0.037998386
-0.060612522 0.15599005 -0.08251557 -0.13014176 -0.040835902 -0.160604 0.16677444 -0.004160732
-0.09478243 -0.02713242 -0.13602324 -0.43483782 -1.5061425 0.22692207 0.05536814 -0.2660789
-1.3117007 0.41429847 -0.18855004 -0.19475622 0.1583734 0.35983536 -0.5411827 -0.037419442
-0.2998462 0.606112 -0.8714034 -0.0008235676 -0.2549824 0.023070008 0.07364837 -0.5108258
-0.10738263 -0.26219788 0.06324569 -0.33947936 0.21764529 -0.018276146 -0.20226125 -0.19702215
0.07277626 -0.42209363 -0.068219356 -0.25436163 0.030466106 -0.2589513 0.0015804552 -0.021989813
0.03853732 1.0320592 0.59301656 -2.6807673 0.4464605 -1.0831207 0.66049945 -0.2666489
0.046194352 -0.17475036 -0.3951021 1.1314058 -0.92967504 -0.5275103 -0.45850575 1.1310563
2.2385435 -0.28310347 -0.021799099 -0.46741098 0.16502246 -0.75843155 -0.1734334 0.31068522
0.025662418 -0.46133432 1.1315987 -0.028748192 -0.056532394 0.04903702 -0.12621756 -0.50358856
0.078660384 -0.6500539 -0.50962776 -1.2721823 -0.05526285 -0.069329694 -0.21276811 -0.11495949
-0.09311117 -0.124824524 -0.081748635 0.12554279 -0.12918274 -0.03555593 -0.06305851 -0.058858827
-0.077498555 0.25038105 0.15270916 -0.12820666 -0.24808943 -0.10105638 0.015158892 -0.004410127
-0.00031429337 0.10111557 -0.3149015 0.33278266 -1.5792499 0.169358 1.6434915 0.13058977
00000000: 6fbd 9ebc fc17 fcbb d36b 083e 73eb 89bf
00000010: c6fd b73f 0f1f 21be d344 143c 61bc bcbf
00000020: 10a7 bb3f b098 ccbf dc0c 763d 0808 9d3d
00000030: 0660 883f 7f97 e3bf cf92 14bf 7b57 2f3f
00000040: 962f 9f3d fda9 cfbf 898c 45bf bcab 2fbe
00000050: b2f7 ad3d 7100 6fbf 71e3 0e3d 921e 8f3f
00000060: 9bf0 533f 39e8 ce3d a8d4 02bf 38fe fb3e
00000070: d11a 5abf 14bb 73be 862c 633d 4ebb c03e
00000080: 761c 14bf 5526 7cbf 3f49 ff3d 0e7a 89bf
00000090: aeb5 1ebf d8f8 4c3d e605 1fbd e548 8bbe
000000a0: 6615 46bd a311 6bbc 0d8d a23f bfb3 85bf
000000b0: 6b92 dcbe a332 413e ebb2 bf3f 0ee4 59bf
000000c0: 0600 e93a f33e c8bd f8ee f23d f18b 92bf
000000d0: 98e3 0d3f 6a36 7cbe 398f 25bf 9112 88bf
000000e0: e86d 693e 2529 333d 2dcf af3c 2313 bb3c
000000f0: 3748 c23e c165 efbf db6e 783e 47be 253f
00000100: 4c0f 103f d53d cdbf d645 013f 1118 70bb
00000110: 0459 29be df80 9abd 7af9 0940 6a0f 6a3f
00000120: c20f 93be 9987 4a3f f84f 0840 86eb 8f3f
00000130: cfb1 efbb caf8 64bb 5c44 7cbc 7bf2 2040
00000140: 8c89 d33d e990 14be 8bc5 76bd 73b2 dbbd
00000150: 607c 223d 2b82 ec3c dc6f c8bb b7ce 243c
00000160: c24b 27c0 c9c7 10be 77f3 04bd cac4 f23d
00000170: a9ea f23c a453 82bd 6c3f dbbc a48d ff3d
00000180: fffc 44be eb26 7cbe cab2 673f 9c39 ee3e
00000190: ef5a c63e d51c 66bf a1c2 453f 2ab9 f53e
000001a0: 4482 dfbe 870f febc 3dff 833d 17d5 613e
000001b0: 14d0 cbbd 47b3 243e 2688 0dbf 1e07 0c3f
000001c0: 88b5 31bd 8cc2 083f 78b1 753b b449 4fbb
000001d0: 9dd2 493e 189c 99bf 725b 23bf 02ec bbbf
000001e0: 0dc7 1a3e 3fc0 103f 8346 1abf 777c 5b3e
000001f0: efae 43be 85ac 873c a8b9 743f d1b5 a93e
00000200: ee29 583f 008e 92be 6fbe 6bbf 79df c9bc
00000210: c52b 26be 14c5 23be 2429 aebd d4b5 87be
00000220: bb93 44be 8056 363d 3900 4b3e 8453 243e
00000230: 18c1 d23d 2814 a43d 473d 58be 32a4 1bbd
00000240: d644 78bd dbbb 1f3e ecfd a8bd e243 05be
00000250: 8c43 27bd 6075 24be ebc6 2a3e c056 88bb
00000260: 4a1d c2bd cf44 debc ad49 0bbe 10a3 debe
00000270: 47c9 c0bf 425e 683e b4c9 623d 7e3b 88be
00000280: cfe5 a7bf ee1e d43e 4313 41be 2d6e 47be
00000290: a32c 223e 573c b83e f38a 0abf 2145 19bd
000002a0: 7185 99be 282a 1b3f 4b14 5fbf b0e4 57ba
000002b0: 0e8d 82be 50fd bc3c f5d4 963d 7bc5 02bf
000002c0: 6deb dbbd cd3e 86be f586 813d 3dd0 adbe
000002d0: 68de 5e3e dbb7 95bc 931d 4fbe 2dc0 49be
000002e0: b80b 953d a81c d8be 97b6 8bbd b03b 82be
000002f0: 0e94 f93c 4495 84be 4727 cf3a fb23 b4bc
00000300: 4fd9 1d3d 841a 843f efcf 173f b191 2bc0
00000310: 7896 e43e b3a3 8abf 7e16 293f 3486 88be
00000320: 4a36 3d3d c2f1 32be d34a cabe e8d1 903f
00000330: 2fff 6dbf ea0a 07bf 44c1 eabe 74c6 903f
00000340: 4c44 0f40 f0f2 90be 0694 b2bc 7e50 efbe
00000350: a6fb 283e 9228 42bf 8698 31be 2212 9f3e
00000360: fe39 d23c 0334 ecbe 3ad8 903f 5481 ebbc
00000370: 838e 67bd 0bdb 483d 2d3f 01be 2eeb 00bf
00000380: b218 a13d ef69 26bf f776 02bf dfd6 a2bf
00000390: 4c5b 62bd bafc 8dbd e2df 59be e26f ebbd
000003a0: 12b1 bebd 00a4 ffbd d46b a7bd 4a8e 003e
000003b0: 7b48 04be 18a3 11bd d224 81bd f415 71bd
000003c0: 90b7 9ebd f231 803e ca5f 1c3e 9b48 03be
000003d0: 280b 7ebe a6f6 cebd 005d 783c d482 90bb
000003e0: bec7 a4b9 ae15 cf3d c53a a1be 7d62 aa3e
000003f0: dc24 cabf 2f6c 2d3e ee5d d23f 53b9 053e
