Elysian/elysian-backend/user_encoder.tflite (tflite, 32976 bytes, 6 tensors)

arith.constant f4 [32, 64]
00000000: ca4c 0f3e 3383 2cbe 09fd d53e 9f8a 1dbb
00000010: eeb1 4a3e 632e 053e d88b 12be a353 11bf
00000020: a7e9 5fbe 413a aebe b7a1 8f3e a167 573d
00000030: b203 a43e 1091 8b39 1449 d83e 2ba7 9d3d
00000040: 8e2b e33d 5d9d 183e bd6b b63d 0e42 ff3e
00000050: 2807 063e e49a 7e3e 1217 a4bd d2c7 72bc
00000060: eca5 523e 406d 183e 809d 82be cf57 cebd
00000070: 245c e9be e797 a1be 7579 673e aaac 2a3e
00000080: a020 f4be 1b9a cf3e 8ede 2cbc 2503 733e
00000090: ea08 c33b 626c ad3e 4928 d2be 71ab 88be
000000a0: 1e6e 863d d3c4 5a3e af50 a43e b5eb 323f
000000b0: ce8e 80be cf65 85be d92e bb3d 159a af3e
000000c0: 8144 03bf 6a9b c9be dbe6 bebd 6548 bcbd
000000d0: 6ef9 a1be f822 ffbd 1dc9 05be b3d1 203f
000000e0: bad6 4bbe 83f3 7f3e 7186 ff3c 166a b3bc
000000f0: 39c6 dfbc 10d7 133e 109b 4c3d 59e5 573e
00000100: e160 253d c952 f3bd a63b 833d aec9 56bd
00000110: 887f fa3e 5caf 0d3f d367 923e 53c9 57bf
00000120: 55dd a63e 3bf3 aabd 0588 89bd 3716 bcbd
00000130: bd0f eabe c179 ccbe ae73 fe3d ec2f 0bbf
00000140: 8730 093f 08b1 703e 5b61 1ebe 1207 213f
00000150: 1ab2 863e 09b3 93bd bf85 fc3e 640d 97bd
00000160: 51e2 483e b4e2 8b3d 5c6c 443d faef 133f
00000170: 4e7a 8dbe 794f 143d 9a88 f9bd d5c1 8a3d
00000180: e23b bb3e 2be5 803d 696a ce3e 9378 743e
00000190: 2219 40be 76c0 ad3d 9d8d 9f3e b98c 00be
000001a0: cecc e0be e0ad 2e3e 35bb 52be 792c e83d
000001b0: d0c5 043e fcd3 a6be e0f0 a4be ea3c f9ba
000001c0: 1b12 ce3e c095 bf3e 8518 0d3f 90e9 913e
000001d0: 08be 99be a4e1 07be ff56 133c 5ba4 05bd
000001e0: 7b20 c4be 8cd1 123f ca3d c33e b370 923d
000001f0: 6508 173e e42b 90be b0bb 1fbd 3279 30be
00000200: 36f3 82bf 5236 07be 1ae9 083f b692 ddbd
00000210: a6a5 f8bc 0c30 a0be dc09 233e 1b02 6e3f
00000220: a486 6b3e 40dc b33e e290 963e f3b2 acbe
00000230: e8bf 87bd d536 4c3e f48f ba3d 8fcb debb
00000240: 692b d4be 0b79 073f e454 ed3e 2e3d d9be
00000250: a07c 8e3e 2166 65be e63b 2dbe 32ca 80be
00000260: 02fb b33d 0b2b 333e d405 42be 02b5 e93d
00000270: 99f9 0abe 5176 ec3d cf8c a6be 2194 ecbb
00000280: 2349 693d 1e15 babd 332d 2cbf 68d4 acbe
00000290: 66ca 53be 3d4e 5a3c 2ec8 37bd cedd 9dbe
000002a0: 30e0 89bd 3cd5 a0bd ca14 b3be 2140 64be
000002b0: 2721 a13d 0165 afbd bc19 413d 7eb8 e8bd
000002c0: c461 5b3e d9a2 2dbe 677d 07be 4a2e c4bd
000002d0: fc2e bc3d 6cdf 1bbf 3b95 a73e 5d0b 49bc
000002e0: 4371 0d3e 6386 b83d a318 5e3d 4b94 63be
000002f0: 99db 403e b13b e73d adfa 863e d453 57be
00000300: a8ff 7cbf 8bf6 0bbe cf54 703e 6d5c 91be
00000310: 7a58 e6be 3329 d7bc 84a7 e7bd 799c 12be
00000320: a672 783e d0a5 953d b11b 033e f0f0 89be
00000330: 8f6b 9fbd 7da9 0d3e da80 973e f51c 0a3f
00000340: d258 b5be c8e0 203e e7c1 073f d60e 593e
00000350: dfd1 34be 0bbb 7f3e b110 0ebf 4eee b6be
00000360: bb2f dfbd 98d3 013f 505e 09be b1df 2fbd
00000370: 8b16 b93e f96a 92bd e227 b53e ab5f eb3d
00000380: 340b 70be 921f 0e3e aa98 06bf 4a32 973e
00000390: 4e9c 58bd 497a d13e a7f5 ff3d f9ef 9dbc
000003a0: 10fd b7be b9ad babe 718f a33e 999b 2dbe
000003b0: 6cf6 b1b7 ea23 533e 7fe5 c43e c39e 19bd
000003c0: e2a8 5abe fed3 5e3a 1c04 92bb 799b edbd
000003d0: 140f febc 5b97 d33d 3761 c73e 1542 d5be
000003e0: f9b3 883d 5126 8ebe 0212 553e 93d4 af3d
000003f0: 3fff 18be d8e3 bebe c310 f93d aaff b13d
0.13994136 -0.16846924 0.41794613 -0.0024038923 0.19794437 0.13005976 -0.14311159 -0.56768245
-0.21866475 -0.3402882 0.28053066 0.052589063 0.3203407 0.00026620226 0.42243254 0.076979004
0.11092292 0.1490378 0.08907268 0.49855083 0.13088667 0.24863774 -0.08012213 -0.014818149
0.20571107 0.14885426 -0.25510788 -0.10075342 -0.4557811 -0.31561205 0.22604926 0.16667429
-0.4768114 0.4054726 -0.010551108 0.23731668 0.0059519904 0.33871752 -0.4104636 -0.266933
0.06563972 0.21364145 0.32092807 0.6989091 -0.2510895 -0.26054236 0.09139795 0.34297243
-0.51276404 -0.39376384 -0.09321376 -0.09193496 -0.31635612 -0.12457842 -0.13065 0.62819976
-0.1990613 0.24995236 0.031192036 -0.021901172 -0.0273162 0.14437509 0.049952567 0.21083583
0.040375594 -0.118810244 0.064078614 -0.05243843 0.48925424 0.553457 0.28594837 -0.8429157
0.32590738 -0.08347174 -0.06715397 -0.09183925 -0.45715132 -0.3993664 0.12424408 -0.5437
0.5358967 0.23505032 -0.15466826 0.62901413 0.26307756 -0.072118826 0.4932079 -0.07375601
0.19617583 0.068303496 0.047954902 0.5778805 -0.27632374 0.036208604 -0.12184258 0.06775252
0.36569124 0.0629371 0.4031556 0.2387412 -0.18759587 0.08483975 0.3116273 -0.12553681
-0.43906254 0.17058516 -0.20579226 0.113366075 0.12966084 -0.32583606 -0.32215023 -0.0019015346
0.40248188 0.37418938 0.5511554 0.28498507 -0.30027795 -0.13269669 0.008992909 -0.032627445
-0.3830603 0.57350993 0.3813308 0.07150402 0.14749296 -0.28158486 -0.038997352 -0.17233732
-1.0230472 -0.13204315 0.53480685 -0.108189985 -0.030352425 -0.31286657 0.1592173 0.9297196
0.2300058 0.35128975 0.29407412 -0.33730277 -0.066284 0.19942792 0.09109488 -0.0067991684
-0.4143937 0.5291907 0.4635383 -0.4242949 0.27829456 -0.2240224 -0.1691738 -0.25154263
0.0878811 0.17496888 -0.18947536 0.114114776 -0.13571776 0.115460046 -0.32529303 -0.007219807
0.056954514 -0.09086059 -0.6725647 -0.33755803 -0.20682678 0.0133243175 -0.04486864 -0.30833286
-0.067322135 -0.07853171 -0.34976798 -0.22290088 0.078676514 -0.08564187 0.047143683 -0.11363314
0.21424013 -0.16956653 -0.13231431 -0.095791414 0.09188649 -0.6088779 0.3273104 -0.012270776
0.13812737 0.09010007 0.054222714 -0.22224538 0.1883377 0.11290682 0.26363125 -0.21028072
-0.988276 -0.13668267 0.23469852 -0.28390828 -0.44989377 -0.026264763 -0.11311248 -0.14317502
0.24262485 0.07307017 0.12803532 -0.26941633 -0.07784187 0.13834186 0.29590493 0.53950435
-0.35419327 0.15710747 0.53030246 0.21197066 -0.17658184 0.24973695 -0.5549422 -0.35728687
-0.10897776 0.5071349 -0.13414884 -0.042937938 0.3615001 -0.0714931 0.3538199 0.114928566
-0.23441774 0.1387923 -0.52576697 0.29530555 -0.05288344 0.4091361 0.12498026 -0.019279467
-0.3593526 -0.36460665 0.31945375 -0.16953887 -2.1214793e-05 0.20619169 0.38456342 -0.037504923
-0.21353486 0.0008500217 -0.0044560563 -0.1160192 -0.03101305 0.10331603 0.38941357 -0.4165198
0.06674952 -0.27763608 0.2080765 0.08585467 -0.14941119 -0.37283206 0.121614 0.08691342

arith.constant1 f4 [64, 49]
00000000: 6cdb f03d fcc8 bcbd 1fd2 20bf 02b0 dc3d
00000010: fcf3 9a3d 6b10 33be b3c7 b33e 2949 073e
00000020: 80a6 9a3e 1777 8d3e 4adb 04be f0af 033f
00000030: bfe4 083e bd2b dbbe 6a90 223d 13eb a7bd
00000040: 65ca 1dbd 1e9d 2bbd 6fa5 e1bd 54ef b0be
00000050: c502 c2be c921 bebd 734b f4bd f128 c93e
00000060: 4f7d fe3c 652c e9be 5faa d2be 1993 c13d
00000070: e4ad 01bf da1e c73e ffca b8be 8a26 9dbe
00000080: 9bfe cdbf f598 b53d 176f a43e 8e22 f4be
00000090: 15af 43be 7042 70bf 5d95 e0bd 3430 9ebe
000000a0: 53bb f93d 16e9 02bd b971 7d3e 3f8f 713e
000000b0: 9221 86bb 9ad0 34be 887e 4b3e 0a2e 50bf
000000c0: b08f 74bf 7763 953e 147c 83be 1d13 883d
000000d0: 3c64 1fbe e17a 57be 20a7 88bd 7d5b 15be
000000e0: 9fb2 5fbd 7f09 abbe eff4 babe 7ee0 503e
000000f0: 1ca7 9cbe ec3a 983d ec12 92be 66fb 103e
00000100: d39c 12be 81cc 923e 44a8 8f3e aefe dd3d
00000110: b907 63bd 2431 903d bab7 f53e 2de1 3abd
00000120: 5a76 023e 2d72 583c e83d 30be b6a4 a73d
00000130: 0e2d d33d a7cc acbe 809f ab3d 642b 7dbd
00000140: 535c 103f ef89 e03d 9692 1dbf e462 babe
00000150: 5571 603f 82ff fdbd 3498 b3bf 2000 353e
00000160: 38f4 0c3e 0794 35bd e001 923e 0d95 6a3e
00000170: 9dc3 ae3e 93a8 bcbd 61f9 44be bb3b f2bd
00000180: ff07 9dbd 5f6c 0bbe 7669 95be 3295 c23e
00000190: 1c48 263f f752 acbd 84e0 eb3d 68d1 ce3d
000001a0: 06f4 023e 385d b83e bbe7 303f a954 1e3e
000001b0: 3716 333c f4a3 c03e 5525 b1be 8f98 8a3e
000001c0: 8303 b6be cb3e 1dbe c67c a33d 3d0c cf3d
000001d0: 6848 d5bd c76c 93be dfae e43e 7790 49be
000001e0: 264e 603f d6e6 e13d a517 823d 3f27 fe3d
000001f0: 4856 903e 44ef 3fbe c651 26bf dbef 9d3e
00000200: dcf6 65be 4e57 073e 9e35 f93d e9a6 1a3f
00000210: 4dda b23e 22cf bf3d 5e45 90bc 9d6c 823e
00000220: ce0f 80be a865 fd3d 98f3 71bd ca26 333e
00000230: d03a bd3e 6e9c 16bc c1ad c9bd 262d 14be
00000240: 41a3 09be c4c5 0fbe 18d1 4f3c 4698 063f
00000250: 8177 54be 0892 753e 8544 0fbe 186b 003f
00000260: f7fa 843e 414e c63d a804 7e3d 2859 eebd
00000270: a1cf df3d 6325 94be 7a88 fa3d f954 e0bb
00000280: 6014 f4bd 263a d83e 552c 4ebb 9320 393e
00000290: 8064 b3bd 51bc 3abe 3032 503e 2323 0bbe
000002a0: 3183 a0be c136 433d 4c99 763e 30d0 82be
000002b0: 0024 ef3e 1a2b e33d 7f56 c73c 1535 32bf
000002c0: ce22 e0bd 57d5 023f 431e 92be acac 003f
000002d0: c365 d1bd 7713 663e 7ff2 0dbf f244 343e
000002e0: bd68 c7be 44ab e0bc 4195 fc3d 0de4 363d
000002f0: 08b5 27be b171 5c3e 0531 083d 509b dabe
00000300: e4f3 1c3e 57a8 fd3e bc5f 0c3d 9318 f5be
00000310: d44a 13be 35cf b3be 188d 4dbe b5ea 303f
00000320: 2b21 813e 3d2f 01bd a0e0 243e c444 42be
00000330: fb12 c53d dc8b cb3e b24c 343e fac2 643d
00000340: 678c 47bd b38e 7bbe aab5 de3d e642 3cbe
00000350: 214d aebe 654d 2dbe f05f 0d3f 134d d93e
00000360: 7778 9ebe 36bc a3bd 8497 cf3c 1e10 d33e
00000370: f6b8 d8be 6530 ca3c 16c6 87be b19d fe3d
00000380: 49f1 8ebe db3c b73e c4dd 4f3d 6ebb 4b3e
00000390: b0f4 043e eeb4 b2be 80dc 0d3e dcc9 93bd
000003a0: 5846 0dbe 1a49 12bf 160c 253d aa58 17be
000003b0: 3ad1 af3c e2e7 1f3d bf91 093f 5a88 f6be
000003c0: e099 e0bc c968 d3be cc0c 18bf f443 d63d
000003d0: 933b 183f 7757 71bd 85d5 8cbe 85a0 c1bd
000003e0: 395a c2bd 3217 b6bd 4e6a 9d3e 2b87 bbbd
000003f0: 3155 c1be 88ec 74be 414d 5d3f a80a 7bbc
0.117606014 -0.09218022 -0.6282062 0.10775758 0.075660676 -0.17486732 0.35113296 0.13211502
0.30205154 0.2762992 -0.12974277 0.51440334 0.1336851 -0.42806807 0.039688505 -0.08199134
-0.038523097 -0.041897886 -0.11017882 -0.34557593 -0.37892738 -0.09283788 -0.11928453 0.39289048
0.031065611 -0.45541683 -0.41145608 0.09451885 -0.5065596 0.38890725 -0.36092374 -0.30693465
-1.6093324 0.08867065 0.32116005 -0.47682613 -0.19109757 -0.93851376 -0.10965989 -0.3089615
0.121939324 -0.03196057 0.24750413 0.235898 -0.0040933574 -0.176577 0.19872487 -0.8132025
-0.9553175 0.29177448 -0.25680602 0.066442706 -0.1556558 -0.21042968 -0.066725016 -0.14585681
-0.054613706 -0.33405682 -0.36514995 0.20398137 -0.30596244 0.074331135 -0.2853006 0.14158401
-0.14317636 0.2867165 0.28058064 0.10839592 -0.055427287 0.07040623 0.47991735 -0.0456249
0.1274046 0.013210815 -0.17211115 0.08185713 0.10311328 -0.33749887 0.083800316 -0.06180896
0.56390876 0.10963809 -0.615518 -0.36403573 0.8767293 -0.1240225 -1.4030824 0.17675829
0.13765037 -0.044330623 0.28517056 0.22908421 0.34133616 -0.092118405 -0.19235756 -0.11827799
-0.07667541 -0.13615559 -0.29182023 0.38004452 0.6495378 -0.08414262 0.11517432 0.10098535
0.127884 0.3600862 0.6910359 0.15461983 0.010930589 0.37625086 -0.34598795 0.27069518
-0.35549554 -0.15355985 0.07982783 0.10109756 -0.10414201 -0.28793928 0.44664666 -0.19684015
0.87619245 0.110303566 0.06352166 0.12409829 0.28190827 -0.18743616 -0.64968526 0.30847058
-0.2245745 0.13216898 0.1216843 0.60410935 0.34932175 0.09365679 -0.017611202 0.2547349
-0.25012058 0.12372905 -0.0590702 0.17495266 0.36958933 -0.009192569 -0.09847594 -0.14470348
-0.13441183 -0.14040285 0.012684129 0.525761 -0.20748712 0.23981488 -0.13990982 0.5016341
0.2597272 0.096828945 0.06201616 -0.11638099 0.10928274 -0.28934774 0.12233062 -0.006846067
-0.11917949 0.42231864 -0.003145953 0.18078832 -0.08759403 -0.182359 0.20331645 -0.13587622
-0.3135009 0.04765964 0.24081916 -0.2554946 0.46707153 0.11092205 0.024333237 -0.69612247
-0.109441385 0.5110678 -0.28538713 0.50263476 -0.10224488 0.22468363 -0.55448145 0.17604426
-0.38947096 -0.027425416 0.123331554 0.04465108 -0.16377652 0.21527745 0.033249874 -0.4269662
0.15327412 0.49542496 0.034270987 -0.4787031 -0.14384013 -0.35119024 -0.20073354 0.69108135
0.25220618 -0.03153919 0.16101313 -0.18971545 0.09622761 0.39755142 0.17607382 0.055850007
-0.048717882 -0.24566154 0.108744934 -0.18384895 -0.3404322 -0.16924055 0.55224514 0.42441615
-0.30951282 -0.07994883 0.025340803 0.41223234 -0.42328614 0.02468128 -0.26518315 0.12432421
-0.2791846 0.35788617 0.0507486 0.19895718 0.12983966 -0.34903663 0.13853645 -0.07216236
-0.13796365 -0.57142794 0.04029473 -0.14779916 0.021462072 0.0390395 0.53738016 -0.48150903
-0.027417123 -0.41290882 -0.59394526 0.1046218 0.59465903 -0.058921304 -0.27506652 -0.09454445
-0.09489865 -0.08891143 0.30745167 -0.091566406 -0.37760308 -0.23918355 0.86446005 -0.015322365

functional_13_1/dense_24_1/BiasAdd/ReadVariableOp f4 [64]
00000000: 4ec9 d93d ce7b 0bbe 0046 29be 5651 c0bd
00000010: 6942 4abe 019c 06bd d6e2 643c d117 b1be
00000020: 8ed3 cf3d 1acb d63d 57eb 423c 4719 1abe
00000030: 7198 f9bd d5c1 90bd 0db1 78be f110 34be
00000040: a6ad 3c3c 00e7 363e d54a 523d ad95 84be
00000050: e15c a4be 2f54 09be 320a 97be ffea 893d
00000060: 50b8 71be fa76 4cbd 8775 4e3e 02f7 6ebe
00000070: 5340 0fbd 3f9d 943e af5d d1bd 4cec 55bd
00000080: 3ad0 fe3d 35bb 11be a46f 2ebe 593d 81be
00000090: 3690 8fbd ad51 25be 01b6 0abe a4e8 473d
000000a0: c702 4ebd a6c5 4ebe 22b9 2b3a 1ceb 2d3d
000000b0: 6e97 e8bd 6b8f 3bbe fa3c b73d 45bf 013e
000000c0: ed43 b93e 7c72 22be e933 85be ba7c d4bd
000000d0: dad9 44bc 87e3 82be 83f6 38be 4342 87bb
000000e0: 009c 29be ac21 dcbc 54ad e43d bf7e c83d
000000f0: c89d 1b3d d416 a7bd 6f86 f8bc ff2b 6b3e
0.10634099 -0.13621446 -0.16530609 -0.093905136 -0.19751896 -0.03286362 0.0139700975 -0.34588483
0.10147773 0.10487957 0.01189693 -0.15048705 -0.12187279 -0.070682205 -0.2428629 -0.17584588
0.01151601 0.17861557 0.051340897 -0.25895444 -0.3210211 -0.1341102 -0.29499966 0.06734275
-0.23605466 -0.049918152 0.2016202 -0.23336414 -0.034973454 0.2902622 -0.10222947 -0.052227303
0.1244206 -0.1423157 -0.17034775 -0.25242117 -0.07009928 -0.16144438 -0.13545991 0.048805848
-0.050295617 -0.20192584 0.0006550719 0.042460546 -0.11357008 -0.18316428 0.08947177 0.1267062
0.36184636 -0.15863985 -0.26016167 -0.10375352 -0.0120148305 -0.25564215 -0.18062787 -0.004127772
-0.16563416 -0.026871525 0.11165872 0.097898 0.03799227 -0.08158651 -0.03033754 0.22966002

functional_13_1/dense_25_1/BiasAdd/ReadVariableOp f4 [32]
00000000: b8f4 9bbd f61b d5bd 6959 0f3e 27bf 193e
00000010: 0e6a 24be 9a3d a8bd 0c68 b6bd f230 55bd
00000020: 32dd 183e cf2e 4f3e 2070 843d 6b8c ed3d
00000030: c1cc b4bd 1215 013d a97f ffbd d26d 973c
00000040: 5ae0 17be 8d0e 043e e563 bbbd abee dcbd
00000050: 7219 03be ba89 e6bd 4255 fbbc f12d 07be
00000060: 69a3 2cbd 8b4e 113e 7b40 f3bd f791 cbbd
00000070: 5ead 8cbd a4dd 2d3d 98bb c1bc cb41 debc
-0.07615036 -0.10405724 0.13998951 0.15014325 -0.16056082 -0.082148746 -0.08906564 -0.05204863
0.1492813 0.202327 0.06466699 0.11599048 -0.08828116 0.031514235 -0.12475521 0.018484984
-0.14831677 0.12896176 -0.09149913 -0.1078771 -0.12802675 -0.11256738 -0.030680303 -0.13201119
-0.042148028 0.14190118 -0.11877533 -0.0993995 -0.06869005 0.0424477 -0.023649022 -0.027130982

functional_13_1/embedding_24_1/GatherV2/ReadVariableOp f4 [55, 16]
00000000: 1ee6 3bbe 59f1 8dbd 7c27 963e 68c4 9b3e
00000010: dd76 ecbd db96 cbbe 06e1 063e 9c59 18be
00000020: 4deb 1f3e a4cb bebe c791 a63d 68f4 a03e
00000030: 8060 e9be ca37 373e 3e20 9d3d 9a89 b8be
00000040: 7eae c1be d927 e53e fdcd 54be 6cb8 aa3d
00000050: 46e0 7dbd b99b 923e b580 f6be 3d2a 8bbd
00000060: 61ce 9d3d a0d4 5cbe 226e e73d e4d7 e73e
00000070: 76fc 8e3e 791f f0bb f80e 28bf 0cb1 a43e
00000080: 6387 cc3d 594c 9abe bde8 773e e340 803e
00000090: d331 6e3d c5d3 79be 20aa be3e d30d 9ebe
000000a0: 9fa2 d0be e3ce 813e 8797 aabc ea11 4d3e
000000b0: 59be 4f3d 870e 2e3f 0180 95be e8d9 383e
000000c0: 86be a93e 11fe f5be e526 cdbe 7fc2 f5bc
000000d0: bc76 83bd 03fd b9bd f226 bd3d 386f 40bd
000000e0: 894d 64be e51f 883e bf73 913d 7f8e 57bc
000000f0: d608 09bd 77ff 3a3e 2a7c 4b3e 7b1e 50bd
00000100: 0278 1abf c6bf 993e 7718 953b eebc 8dbe
00000110: 606f 05be 2a28 9dbe eb03 3e3e 9b7a 173e
00000120: 26a7 abbe 29e7 633d 2ace 5e3d 5aa8 a03e
00000130: 8b0e c3be 2b79 0c3f c310 9dbe e834 e4be
00000140: 5023 0a3d 7ce1 733e 0617 703d 6e1e 273e
00000150: a7a0 8ebe 32aa 42be 8c5a 903e ecf5 053e
00000160: 186c 313d 4702 00bd 09c0 d03e 9fca 14bf
00000170: 5648 303e 9f0e a4bc acba 60be dfd8 ce3e
00000180: 2ef4 7fbe 3d15 113d 0f6e c23b d515 b33e
00000190: 4677 ac3e 287f 5e3e d239 87bb 0b31 dbbd
000001a0: 6add 393f df24 ed3d 3286 afbe 312e 00be
000001b0: 91d9 033e 2d96 263f c6e2 8e3d 44fd 583e
000001c0: 1f0e 66be 2628 f83c 51b7 85bc 7a54 0dbe
000001d0: 774f b43e 8071 71be 7041 19bf 82f9 d93d
000001e0: 0d0f 6cbe 3536 a1be d945 5abd 6ab4 763e
000001f0: 22bc 143d 7077 b13e 14af ed3e eef9 413b
00000200: 6f90 54be b378 6dbe 40a3 51be 9792 ecbd
00000210: b7bf ea3d c71a a13e 90de ef3d b8df 183d
00000220: 33ef 36be 50e2 2cbe 20c1 b43e c4fd c3bc
00000230: 2249 c23d ad73 46be 1eff 7bbe ef33 f5bd
00000240: 652d c63e 2663 573e 182b 01be 2d16 eabe
00000250: 5fd9 983e 57c2 813d 403c 9ebd 2f1c f63e
00000260: fba0 033e a7e5 103f 6952 31bc 5409 85be
00000270: 4005 20bd cc7b 4abe 9496 06bd 2179 91be
00000280: 0047 95be 1ad9 03be d604 b03e 916d b33e
00000290: 52af 5a3e 50c8 de3e 3e7b 803e a40c c33d
000002a0: f8ce a83d 00fd 04be 344c 20be f78d 07be
000002b0: 36b5 a5bd 368d debe 2b13 09be afad 9dbe
000002c0: 22e5 70bd 0f60 3abd d2fa a23c f87e 2a3d
000002d0: a46a 0d3e 1c92 f03d 9acd 65be e755 e3bd
000002e0: ca3d a8be f19a 333e b43e 9ebd 76cb fbbd
000002f0: 3d6e 9a3e 83d1 a3bd 6299 9abb 9f64 27be
00000300: 2bd1 673e 188a 6ebe 5eb0 083d 1d70 c1be
00000310: 68e7 1fbe e244 07bf bae9 d8be 6f2d 713d
00000320: bf68 a23c 1116 293d a5c3 f7bd a3f5 8abd
00000330: e972 5abd 0541 bc3e deaf ab3e 180b 163e
00000340: 5e55 2d3d 8c81 d63d 3170 b43b b0d4 41be
00000350: 026b 3b3e e3bb 3bbe c6c6 45be 4dc9 cf3c
00000360: a9ab 05bb edaf 07be 4f0c d1be 435e 36be
00000370: f4bd 32bd eea4 593e 7a1a f13b 08ca 58be
00000380: d035 113e f292 bf3e 9a70 1e3f bfac af3c
00000390: d06d 94be 0624 99bd 28a9 103f b62a 913d
000003a0: 5424 76bb 7953 433e e713 2cbe 1574 babd
000003b0: 99de b73e d792 eb3d 497b 4fbd 6b7f 5c3b
000003c0: a682 09be 1222 2abd d558 9dbe 881c cebe
000003d0: 027e fdbc aa91 efbe e061 8b3d c3bf 9abe
000003e0: f54b d5bb fe87 b83e dcf1 823e 4bf4 79be
000003f0: 24e6 d33e 70b1 0dbe a543 84bd 7543 efbd
-0.18349501 -0.06930799 0.29327 0.30423284 -0.11546109 -0.3976353 0.13171777 -0.14877933
0.15617104 -0.3726474 0.081332736 0.31436467 -0.45581436 0.17892376 0.07672165 -0.36042482
-0.3782844 0.44756964 -0.20781703 0.08335957 -0.061981462 0.28634432 -0.4814507 -0.06795166
0.07705379 -0.21565485 0.11300303 0.452819 0.27926987 -0.0073279706 -0.6564784 0.32166326
0.099867605 -0.30136374 0.24209876 0.25049505 0.058152985 -0.2439719 0.3723917 -0.30869922
-0.4074907 0.25353155 -0.020824207 0.20026365 0.05071864 0.67990917 -0.29199222 0.18051875
0.3315317 -0.480454 -0.40068737 -0.02999997 -0.06419131 -0.09081461 0.09235944 -0.046981066
-0.22295202 0.26586834 0.07102155 -0.013156532 -0.033455692 0.18261515 0.19871584 -0.05081032
-0.6033937 0.30029124 0.0045500356 -0.27683204 -0.13030767 -0.30694705 0.18556182 0.14792864
-0.33525962 0.055640373 0.054395832 0.31378442 -0.38097033 0.5487239 -0.3067685 -0.44571614
0.033725083 0.23816484 0.058615707 0.16320202 -0.27856943 -0.19010237 0.28194082 0.13082093
0.043315977 -0.03125217 0.4077151 -0.58121675 0.17215094 -0.020026503 -0.2194621 0.40399835
-0.24995491 0.035420645 0.00593353 0.34977594 0.33684748 0.21728194 -0.0041267658 -0.107027136
0.72603476 0.11579298 -0.3428207 -0.1251762 0.12875964 0.650729 0.06976847 0.21190363
-0.22466324 0.030292582 -0.016322764 -0.13801757 0.35216877 -0.23578453 -0.59865475 0.10643293
-0.23052616 -0.3148667 -0.05328927 0.2409226 0.03631223 0.34661436 0.46422637 0.0029598433
-0.20758222 -0.23190574 -0.20472431 -0.11551397 0.11462348 0.31465742 0.11712372 0.03732273
-0.17864685 -0.16883206 0.35303593 -0.023924716 0.09486605 -0.19380064 -0.24609038 -0.11972796
0.38706508 0.21033916 -0.12614095 -0.45720044 0.2985334 0.063358955 -0.077263355 0.48068377
0.12854378 0.5660042 -0.010822871 -0.2598368 -0.039067507 -0.19773787 -0.032858446 -0.28412727
-0.2915573 -0.12875786 0.3437869 0.3504453 0.21355942 0.435122 0.25094026 0.095238954
0.08242601 -0.12987137 -0.15654069 -0.13237749 -0.08091204 -0.4346711 -0.13386218 -0.30796573
-0.058812268 -0.045501765 0.019894991 0.041624993 0.13810211 0.11746618 -0.22441712 -0.11100369
-0.3285964 0.17539574 -0.077268034 -0.122946665 0.3016223 -0.079989456 -0.0047179917 -0.16346978
0.22638385 -0.23294866 0.03337132 -0.37780848 -0.15615618 -0.5283948 -0.4236582 0.05888122
0.019825337 0.04128081 -0.12097863 -0.06785133 -0.053332243 0.36768356 0.33532614 0.1465267
0.04231774 0.10473928 0.0055065383 -0.1892879 0.18302539 -0.18333392 -0.19314107 0.025364542
-0.0020396507 -0.13250704 -0.40829703 -0.17809395 -0.043638185 0.21254322 0.0073578926 -0.21170819
0.14180684 0.37416798 0.61890566 0.021444676 -0.2899003 -0.07477574 0.5650811 0.070882246
-0.0037558274 0.19074811 -0.16804467 -0.09104172 0.35912016 0.11502617 -0.050654683 0.0033645283
-0.13428745 -0.0415364 -0.30731836 -0.40256143 -0.030943874 -0.4679082 0.068057775 -0.30224428
-0.006509299 0.36041254 0.2557515 -0.24409597 0.4138652 -0.13837218 -0.06458215 -0.11682788

functional_13_1/embedding_25_1/GatherV2/ReadVariableOp f4 [56, 16]
00000000: c00b 883c c31e 163b 4418 cb3d 3b7f 843e
00000010: 9c21 a93d 3fc2 85bd 5f34 213d 1450 303e
00000020: 65e6 ed3d dc89 d0be 6106 d63d 8e42 193e
00000030: b281 49be 6759 38bd d5c4 713d 7f47 623d
00000040: 9ba0 7bbe 4358 82be d861 22be 74d5 1abe
00000050: 3130 96bd b686 cfbd d7a3 3fbe 1aa7 9abc
00000060: 0288 993e 78e1 8abe 52ed d8be bb39 55be
00000070: 3c1d 58be d33f 303e 90c8 293e d6b1 50be
00000080: 3ea2 10bf 88ce f43d 5d4d cbbc 4eba 01be
00000090: f73e 313e a6a8 66be a0eb e53d f336 573e
000000a0: 3a56 91be 65ef 00bd a0a9 21be 49aa 573d
000000b0: 1aa2 1d3e 1580 60bd 0c5a eb3d 8fed d9be
000000c0: e8e6 e53d a536 56be 14f4 f8bd 5185 96be
000000d0: d55d 293c c1c7 4dbe 1076 78be 39c9 29bf
000000e0: e754 b2bc 6a8e b3be a49b 0a3e 2d22 4c3e
000000f0: 037a 99be 9903 273d 49a8 f13c 0ec8 023e
00000100: 08f8 17be bbaa bf3d 1834 923e e572 193e
00000110: f1b3 64bd 8ccd 8c3e 9d9c 323e 3b70 6b3e
00000120: f10e 7fbe 4f54 06bf 2447 ad3e 2db1 4c3e
00000130: ce58 5e3e 4852 ddbc 0203 aebc 2db9 123e
00000140: d80b 783d b6d0 88be bca3 e1bd e38e fbbe
00000150: 187f 693d b60b be3e d071 f83d 97c5 39be
00000160: 7ab6 043e 7e8b 843d 24bf b73e a9fc 91be
00000170: 9127 b03e 0c52 b5bd b2cc 093e aa0c a23e
00000180: 63c4 72be 536e b83d 6693 e83d 6bc8 9ebd
00000190: ecaf 2d3e 965f 343e a899 533f e791 a43e
000001a0: f5ff 623c 685f a53e 8382 a0be 07d8 fbbc
000001b0: ecb2 9e3d e93f 0e3f db03 bcbe 4864 533e
000001c0: 251a 22be b255 60be a645 b2bd 7e8e 0bbf
000001d0: bbbf 4a3e 4754 89bd 7426 5a3b 81e6 463e
000001e0: 08b1 c23e 3b0e 5d3e 9084 3bbe 3100 f33e
000001f0: 2d19 0c3e aaf9 6d3d 289a d9bd bed7 bcbe
00000200: 2b0f fdba 221d 55bd c539 0d3f 0bf2 b73e
00000210: 4cc6 6fbe 5f65 84be ee97 71be 364a ce3e
00000220: 8ee9 2cbd 2af2 92bc cb62 12be 6c90 a43d
00000230: 135b f83b 6654 9a3d 3ff5 e5be 44f8 6dbe
00000240: 21fe a73d 026a 563d 8d19 c3bd 8487 2a3e
00000250: e3a5 ab3d 5b67 833e a6d5 193f 6d9e ba3e
00000260: ba4a 073d bbe5 37be d51b 153e 798d 18be
00000270: c0fd 27be 3135 b4be 86e7 41be f84b 2abd
00000280: 0063 623e 9801 ca3e 54df 213d ab19 363d
00000290: d969 81be ec19 a5bd b53f 93be ad8d 443e
000002a0: fd98 173e 8e73 093e 3aaa 9d3e c495 c53c
000002b0: 8749 0b3e eeae c1bc d1e6 7d3e 1448 2cbb
000002c0: 5ea2 64bc 5e5e aabe 48e8 123f 0933 a23d
000002d0: 01ce a03d 4d52 a13e d9a7 b0bb 609a 5a3e
000002e0: 752b bdbb 776b 8dbc 03f5 4ebe 45e4 a23e
000002f0: 5919 b9bd 21e3 693e 0acf 173d b9a9 43be
00000300: 77f2 1e3f 1fa2 023e 0a27 e1bd b185 75be
00000310: e944 32be 2470 f53e 0758 fe3e a29d 913e
00000320: aece 053c 0c11 0dbc 5e99 98be 4081 2e3e
00000330: 6f7e 353e cdbe 59be b8fa 47be 7b5f 92be
00000340: 535b 2e3d 058c 173e 02ed abbe 913b 87bd
00000350: 4a76 d53d a075 ca3e de02 aebe a7c9 82be
00000360: 448c b8bd 3afa 373e c0e6 e5bb d04e 483e
00000370: e6b2 293d 6e8a 84bc 11b3 25be 44ae 873e
00000380: f28c a1bc e3ee 5c3e 9e7f a2bc 0980 cd3d
00000390: 662f cebe 7c28 043e 4841 17bf 54b4 dc3d
000003a0: fb28 843e 059a 3a3e c64a 22be d69a 923c
000003b0: d259 8a3d 2be1 ee3e 7d05 abbd a667 65bd
000003c0: 7a1c bdbe 6add 5b3e 4964 a8be 5a3f 1d3d
000003d0: 131e 02bd 134d 4dbe 6326 9dbc 27a7 913d
000003e0: 529f 483e 4a7a 4c3e 5b0e d33e 6105 fa3e
000003f0: fb46 8f3e ab24 9b3e 351e 9cbe 6710 94be
0.016607165 0.002290652 0.09916738 0.2587832 0.082583636 -0.0653119 0.039356586 0.17218047
0.1161621 -0.40730178 0.104504354 0.14966795 -0.19678381 -0.045007136 0.059025604 0.055243965
-0.24572985 -0.25457963 -0.15857637 -0.15120488 -0.073334105 -0.10133116 -0.18714844 -0.018878508
0.29986578 -0.27125144 -0.4236856 -0.20822804 -0.21104902 0.17211847 0.16580415 -0.20380339
-0.5649756 0.11953455 -0.024817163 -0.12668726 0.17309175 -0.22525272 0.112265825 0.21017055
-0.28386098 -0.031478304 -0.15787363 0.05265263 0.15393868 -0.05480965 0.114917845 -0.42564055
0.112256825 -0.20919283 -0.12155929 -0.29398587 0.010337313 -0.20095731 -0.24263787 -0.66322666
-0.021769 -0.3506959 0.13535935 0.19934912 -0.299759 0.040774915 0.02949919 0.12771627
-0.1484071 0.09358736 0.2855537 0.14985235 -0.055835668 0.2750057 0.17442556 0.22992031
-0.24908043 -0.52472395 0.33843338 0.19989462 0.21713564 -0.027016774 -0.021241669 0.14328451
0.06055817 -0.26721734 -0.11017558 -0.4913245 0.05700597 0.3711831 0.12131083 -0.18141781
0.12960234 0.064719185 0.35888016 -0.28513077 0.34405187 -0.0885354 0.13456991 0.31650287
-0.23707728 0.09005418 0.11356239 -0.077530704 0.1696164 0.17614588 0.82656336 0.32142565
0.01385497 0.32299352 -0.31349573 -0.030742658 0.077489704 0.5556627 -0.3672169 0.20643723
-0.15830286 -0.2190769 -0.08704691 -0.545143 0.19799702 -0.06705528 0.003328708 0.19423868
0.3802569 0.2158746 -0.18312287 0.47461084 0.13681479 0.058099426 -0.10625106 -0.36883348
-0.0019306889 -0.052029736 0.55166274 0.35926852 -0.23415488 -0.2585859 -0.23593113 0.40290993
-0.042214923 -0.017937738 -0.14295499 0.08035359 0.0075792163 0.07535629 -0.4491367 -0.23239237
0.08202768 0.05234719 -0.09526358 0.16653258 0.0838125 0.2566479 0.60091627 0.36448994
0.03303025 -0.17958729 0.14561398 -0.14897718 -0.16405392 -0.35196832 -0.18935975 -0.041576356
0.22108078 0.3945434 0.039519623 0.044458073 -0.25276068 -0.08061585 -0.28759542 0.1919467
0.14804454 0.13422987 0.30793935 0.024119265 0.13602267 -0.023642983 0.2479508 -0.002628808
-0.013954727 -0.3327512 0.57385683 0.079198904 0.07851792 0.31508103 -0.0053911027 0.21347952
-0.0057730027 -0.017263157 -0.20210652 0.3181478 -0.09038038 0.22840549 0.037062682 -0.19107713
0.6208872 0.12757157 -0.10993774 -0.2397678 -0.174091 0.4793712 0.49676535 0.28440577
0.008166952 -0.008610021 -0.2980451 0.17041492 0.17724012 -0.21264191 -0.19529235 -0.2858847
0.042567562 0.14799507 -0.3357926 -0.06603158 0.104229525 0.39542866 -0.33986562 -0.25544474
-0.090111285 0.17966548 -0.007016033 0.19561315 0.041430376 -0.01617929 -0.1618159 0.26500142
-0.019720528 0.21575503 -0.019836243 0.100341864 -0.40270537 0.12906069 -0.59083986 0.10776582
0.25812516 0.18222816 -0.15848836 0.017896097 0.06755413 0.46656165 -0.08350656 -0.05600705
-0.36935788 0.21471182 -0.32889012 0.038390495 -0.031766962 -0.20048933 -0.019183343 0.0711196
0.19592026 0.19968525 0.4122189 0.4883223 0.2798384 0.30301413 -0.30491796 -0.28918764
